lstm-mlp code/main/model_sta_dnn.pkl (torch_old, 17107 bytes, 8 tensors)

weight f4 [15, 104]
0	0x3c96fcb7	0.01843105
1	0x3c9bfcc9	0.019041436
2	0x3cb7f584	0.022455938
3	0x3ccbe09c	0.024887376
4	0x3d0b6063	0.03402747
5	0x3d8e89e0	0.06959891
6	0x3d3a3dd2	0.045469113
7	0x3d60d268	0.05488816
8	0x3d7cc346	0.061709665
9	0x3d8855e5	0.06657008
10	0x3d812693	0.063061856
11	0x3d743957	0.059624996
12	0x3d57028e	0.05249267
13	0x3d69d1ed	0.057084966
14	0x3d5cae73	0.053877305
15	0x3d65e86c	0.056129858
16	0x3d758ecf	0.059950646
17	0x3d98a834	0.07453957
18	0x3d9c6dbc	0.07638118
19	0x3e20d24f	0.15705226
20	0x3dbc0b38	0.09181827
21	0x3dda8176	0.10669224
22	0x3dea9806	0.114547774
23	0x3df9b8fd	0.12193487
24	0x3e06df1f	0.13171051
25	0x3e04c61f	0.12966202
26	0x3dc81dc2	0.09771301
27	0x3d95bd79	0.0731153
28	0x3d57c8da	0.05268178
29	0x3cd28f69	0.025703149
30	0x3bba3e6e	0.0056837117
31	0xbbc8407f	-0.006111204
32	0xbd0a8170	-0.033814847
33	0xbce37d36	-0.027769666
34	0xbd1ff797	-0.03905448
35	0xbd44d41d	-0.04805385
36	0xbd7d0c69	-0.061779413
37	0xbd8d2c41	-0.068932064
38	0xbda7e66c	-0.08198246
39	0xbdc2d88e	-0.09513961
40	0xbdc0976b	-0.09403881
41	0xbdb724a1	-0.08942533
42	0xbdc50f58	-0.09622067
43	0xbdafb938	-0.085802495
44	0xbdafdd05	-0.08587078
45	0xbdab115e	-0.08352922
46	0xbe10f098	-0.14154279
47	0xbd8e91cd	-0.06961403
48	0xbd806bc8	-0.06270558
49	0xbd6f6833	-0.05844898
50	0xbd41853f	-0.047246214
51	0xbd2edca4	-0.042690888
52	0x3d3aa403	0.04556657
53	0x3d245d26	0.040127896
54	0x3d24b60f	0.040212687
55	0x3d31b1cd	0.043382455
56	0x3d2d65a9	0.04233328
57	0x3daaa2c7	0.083318286
58	0x3d17aea7	0.037031796
59	0x3d03895d	0.03211342
60	0x3ce3397a	0.027737368
61	0x3c8b5a6c	0.01701089
62	0x3c1eef1e	0.009700565
63	0x3bb46e1a	0.005506289
64	0x3a072305	0.00051550596
65	0x3b3cf3e9	0.0028831905
66	0x3a9026df	0.0010997913
67	0x3ae07df5	0.0017127382
68	0x3bab5d22	0.005229608
69	0x3bd0d4ef	0.00637304
70	0x3c61b278	0.01377546
71	0x3b6a4d35	0.0035751585
72	0xbb450f7f	-0.003006905
73	0xbc4d0623	-0.01251367
74	0xbcc255fd	-0.023722643
75	0xbd34223c	-0.04397796
76	0xbd86fe9d	-0.065915324
77	0xbdb72dbf	-0.08944272
78	0xbe0555ec	-0.13021058
79	0xbe13c004	-0.14428717
80	0xbe21ec32	-0.15812758
81	0xbe202969	-0.15640797
82	0xbe1d54a9	-0.15364327
83	0xbe12e3fc	-0.14344782
84	0xbe84ffc1	-0.25976375
85	0xbe069a53	-0.13144808
86	0xbdfd24c9	-0.12360532
87	0xbdefe025	-0.11712674
88	0xbdefc88d	-0.11708174
89	0xbddff8fb	-0.10936161
90	0xbdbbd628	-0.091717064
91	0xbda005f3	-0.07813635
92	0xbd83a591	-0.06428064
93	0xbd476e51	-0.04868919
94	0xbd1294a8	-0.0357863
95	0xbccfafcc	-0.025352381
96	0xbc6fef17	-0.014644406
97	0xbbb792ab	-0.005602201
98	0x3b6fc73f	0.0036587266
99	0x3c0c9682	0.008580806
100	0x3c85946a	0.01630612
101	0x3ca31db5	0.019911626
102	0x3cb20c37	0.02173434
103	0x3cc3d00e	0.02390292
104	0x3d9b0a61	0.07570339
105	0x3d93c32a	0.07214959
106	0x3d885cb9	0.066583104
107	0x3d6751c4	0.056474462
108	0x3d32317f	0.043504234
109	0x3d556bb6	0.052104674
110	0x3c7399d8	0.014868222
111	0x3ae19678	0.0017210981
112	0xbb8d8de6	-0.004319894
113	0xbbf5761f	-0.007490888
114	0xb9fe2423	-0.0004847358
115	0x3bed3fda	0.0072402777
116	0x3caa6b6d	0.020803178
117	0x3d11c0e3	0.03558434
118	0x3d3c2258	0.04593119
119	0x3d5e8c53	0.054333042
120	0x3d6afd41	0.057370428
121	0x3d5f7bfd	0.054561604
122	0x3d48c4a9	0.049015675
123	0x3d962cdd	0.07332776
124	0x3cf1f821	0.029537262
125	0x3ca5b551	0.02022806
126	0x3c2c9832	0.010534333
127	0x3b82d287	0.003992382
128	0x3af6958a	0.0018812877
129	0x3a9b5c80	0.0011853129
130	0x3c6c1fcf	0.014411881
131	0x3cd3bd50	0.025847107
132	0x3d1014f8	0.035176247
133	0x3d2e9cde	0.04263007
134	0x3d40a6d5	0.047034103
135	0x3d46140d	0.048358966
136	0x3db55f9f	0.08856129
137	0x3d303296	0.043016993
138	0x3d0fbbe4	0.035091296
139	0x3ccd9098	0.025093362
140	0x3c6b2c5a	0.014353836
141	0x3b3c7e74	0.0028761895
142	0xbb950df5	-0.004548783
143	0xbbea85ab	-0.0071570477
144	0xbb0dabf1	-0.0021617378
145	0x3bc14984	0.0058986563
146	0x3c9376f3	0.018001055
147	0x3d0675f5	0.032827336
148	0x3d34f884	0.044182315
149	0x3d5cdb50	0.05392009
150	0x3ddb392b	0.10704263
151	0x3d6ca48e	0.05777412
152	0x3d56f166	0.05247631
153	0x3d3099a0	0.04311526
154	0x3d0279a3	0.031854283
155	0x3c836429	0.016038971
156	0x3c291ff2	0.010322558
157	0xbbd87df4	-0.0066068117
158	0xbcb3b76a	-0.021938045
159	0xbd055cc9	-0.03255919
160	0xbd1f02be	-0.038820975
161	0xbd9bd9c3	-0.07609894
162	0xbd18ebbc	-0.03733419
163	0xbced0f33	-0.028937912
164	0xbc828102	-0.015930656
165	0xbab10acc	-0.0013507246
166	0x3c444128	0.011978425
167	0x3cc58335	0.024110416
168	0x3cedf8a0	0.029049218
169	0x3cd8f9db	0.026486328
170	0x3ca208af	0.019779531
171	0x3c09adcb	0.008403252
172	0xbb7aaa03	-0.0038248308
173	0xbc6f93f7	-0.01462268
174	0xbcc82e58	-0.02443616
175	0xbd5e791c	-0.054314718
176	0xbd0583d7	-0.032596435
177	0xbd02a9d8	-0.031900257
178	0xbcd453d2	-0.025918875
179	0xbc98d84e	-0.01865783
180	0xbbf2d750	-0.007410921
181	0x38a7ce32	8.0015874e-05
182	0x3c83597a	0.016033877
183	0x3c93728e	0.01799896
184	0x3c730e8f	0.014835014
185	0x3c258e18	0.010104679
186	0x3b0a62db	0.0021116051
187	0xbbc5bcbd	-0.0060344622
188	0xbce9d296	-0.028542798
189	0xbcc9c97b	-0.024632206
190	0xbcf0022c	-0.02929791
191	0xbd0923fe	-0.03348159
192	0xbd04dadc	-0.032435283
193	0xbce4c922	-0.027927939
194	0xbc88e4e4	-0.016710706
195	0xbb8aa898	-0.0042315237
196	0x3c1b5bc0	0.009482324
197	0x3ca63c03	0.020292288
198	0x3cd53c02	0.02602959
199	0x3cd3c64b	0.02585139
200	0x3ca6a42b	0.020341953
201	0x3c3527d4	0.011056859
202	0xbb8ad27a	-0.0042365165
203	0xbc80f508	-0.01574184
204	0xbce5f048	-0.028068677
205	0xbd1e51eb	-0.03865234
206	0xbd3f65f1	-0.04672808
207	0xbd46531d	-0.048419107
208	0xbd21374a	-0.03935937
209	0xbc3e0520	-0.011597902
210	0xbba9434c	-0.005165493
211	0x3b2e9aa9	0.0026642478
212	0x3b5108f4	0.0031896206
213	0x3c0762fb	0.008263345
214	0x3b8d1fd4	0.0043067727
215	0x3c71ff7a	0.014770383
216	0x3ca35b94	0.019941129
217	0x3cd6d278	0.026223406
218	0x3c9edd78	0.019392714
219	0x3c4e55a7	0.012593663
220	0xba42a287	-0.0007424731
221	0xbc802b28	-0.015645579
222	0xbd151e4a	-0.03640584
223	0xbd2ef4bc	-0.042713866
224	0xbd382725	-0.044959206
225	0xbd407f13	-0.046996187
226	0xbd39e9a9	-0.04538885
227	0xbd950df6	-0.072780535
228	0xbd10b4d1	-0.03532869
229	0xbcfc0a1c	-0.03076654
230	0xbcbf4d11	-0.023352178
231	0xbc9f5c80	-0.019453287
232	0xbc3491b2	-0.011021065
233	0xbc11554c	-0.008870434
234	0x38cb6fca	9.700617e-05
235	0x3c37955a	0.011205042
236	0x3cad1d27	0.021132065
237	0x3d06cf00	0.032912254
238	0x3d1d9511	0.03847224
239	0x3d2ef469	0.042713556
240	0x3dd165b6	0.10224478
241	0x3d7622f7	0.06009194
242	0x3d8b3220	0.0679667
243	0x3d9f7134	0.07785264
244	0x3dc2fbb8	0.09520668
245	0x3dd745be	0.10511349
246	0x3de8acdf	0.113610975
247	0x3ddd540c	0.10807046
248	0x3dc11736	0.09428255
249	0x3d89043a	0.06690259
250	0x3d507c61	0.050899867
251	0x3c334d2f	0.010943695
252	0xbba7d580	-0.0051218867
253	0xbcf18cbb	-0.02948605
254	0xbdb3ff6b	-0.087889515
255	0xbd824368	-0.06360513

bias f4 [15]
0	0xbde5a971	-0.11213959
1	0x400529a0	2.0806656
2	0xbea7cfd8	-0.3277576
3	0xbebb2e40	-0.36558723
4	0x3f070b4d	0.5275162
5	0xbf1fa265	-0.6235717
6	0x4001a68b	2.02579
7	0xbceeb5cb	-0.02913942
8	0x3fec2381	1.8448335
9	0x3e9dc9eb	0.30818114
10	0x3de96b58	0.11397427
11	0x3eac83d3	0.33694324
12	0x3ced31a4	0.028954335
13	0x4007fbd6	2.1247458
14	0x3fed3610	1.8532124

weight f4 [15, 15]
0	0x3d1410d6	0.03614887
1	0x3e09943b	0.13435452
2	0x3d82c3b7	0.06384986
3	0x3cec5548	0.028849259
4	0x3dec3ba3	0.11534812
5	0xbd5d96e0	-0.054098964
6	0x3f34cda5	0.7062629
7	0x3d4d5c18	0.050136656
8	0x3e9e7979	0.3095205
9	0xbd173e03	-0.036924373
10	0x3e001bdd	0.12510629
11	0xbd73c3f7	-0.05951306
12	0xbc6acac9	-0.014330574
13	0xbe813f61	-0.25243667
14	0x3cf2cac2	0.029637698
15	0x3e27e415	0.163956
16	0xbe3b41db	-0.1828684
17	0x3db97e8e	0.090573415
18	0x3d3c3729	0.045951042
19	0x3dd57e99	0.10424537
20	0x3dc87fa4	0.097899705
21	0x3e041b5a	0.12901059
22	0x3e0d81e1	0.13819076
23	0x3ede4af2	0.43416554
24	0x3e0756ca	0.13216701
25	0xbcc3c9b4	-0.02389989
26	0x3e83f7df	0.25775048
27	0x3d81e8ab	0.06343206
28	0xbe6781fd	-0.2260818
29	0x3c07d7fa	0.008291239
30	0x3c126182	0.0089343805
31	0x3ddeede2	0.10885216
32	0x3dc4ff45	0.09619001
33	0x3d988bc2	0.07448532
34	0x3de09593	0.10966029
35	0xba0ea245	-0.000544105
36	0x3f0dd1e1	0.55398375
37	0x3d50f59a	0.051015474
38	0xbe2cbc8b	-0.16868798
39	0xbc8a80df	-0.016907154
40	0x3dc6884a	0.09693964
41	0x3db4ce40	0.088284016
42	0x3c7a47e9	0.015275934
43	0x3ed8fbf8	0.42379737
44	0xbe6539b0	-0.22385287
45	0xbd65c7c1	-0.056098703
46	0x3ecb5dfc	0.39720142
47	0x3e57eba1	0.21085979
48	0xbd293d77	-0.041318383
49	0x3d51e57c	0.051244244
50	0x3e07307b	0.13202088
51	0xbe0859a0	-0.13315439
52	0xbd9277ad	-0.071517326
53	0x3e418af2	0.1890066
54	0x3bd37f96	0.0064544184
55	0x3ea2a045	0.317629
56	0x3e9d707d	0.30749884
57	0x3e885edd	0.26634875
58	0x3e61f1dc	0.22064918
59	0xbe8c5b54	-0.27413428
60	0x3e02ace5	0.12761267
61	0x3e96fb3b	0.2948855
62	0x3e0bb202	0.13642123
63	0x3ea255ed	0.3170618
64	0x3a2685b2	0.00063523196
65	0x3d0ff4a7	0.035145428
66	0x3e546e90	0.20745301
67	0xbd9f1b1c	-0.077688426
68	0x3e7565a0	0.23964548
69	0x3b46b71a	0.003032154
70	0xbcca00d8	-0.024658605
71	0xbd8eb0fe	-0.06967352
72	0x3e1af813	0.15133695
73	0xbc531bc0	-0.012885034
74	0x3e26d23c	0.16291136
75	0x3e8f92e4	0.28041756
76	0xbdbf4c15	-0.09340683
77	0x3e4cb294	0.19989997
78	0x3d518de0	0.051160693
79	0x3dde67e9	0.10859663
80	0x3dacdbf3	0.084403895
81	0xbd62395a	-0.055230476
82	0x3de331d2	0.11093487
83	0xbeaf5877	-0.3424718
84	0xbc899362	-0.01679391
85	0x3cd921cf	0.026505379
86	0x3e01397a	0.12619582
87	0x3d8dd4f9	0.06925387
88	0xbc70c130	-0.014694497
89	0x3e290ee9	0.16509594
90	0x3e289cbc	0.1646604
91	0xbe48e730	-0.19619441
92	0xbd259ba7	-0.040431645
93	0x3dc2d535	0.09513322
94	0x3db90dfd	0.09035871
95	0x3e04a83e	0.12954804
96	0x3ed93fd9	0.42431524
97	0xbd71297f	-0.058877464
98	0x3e3796e3	0.17928652
99	0x3e7bd103	0.2459145
100	0xbb9dde19	-0.004817736
101	0x3bb7b265	0.005605983
102	0x3e936166	0.28785247
103	0x3ec60a3c	0.38679683
104	0xbe325a61	-0.1741729
105	0x3dc77028	0.09738189
106	0xbb45abdb	-0.0030162248
107	0x3e7ae6f1	0.2450216
108	0x3e1cc2fe	0.15308759
109	0xbda5e367	-0.08100014
110	0x3e8545b9	0.26029757
111	0xbe215e39	-0.157586
112	0x3e4be5ef	0.19911931
113	0x3efc226e	0.49245018
114	0xbdb19263	-0.08670499
115	0x3d290388	0.041263133
116	0xbd8bc094	-0.06823841
117	0x3bd39180	0.006456554
118	0x3ecc5c6e	0.39914268
119	0x3bf4c115	0.0074693062
120	0x3e89dc1e	0.2692575
121	0x3f067241	0.5251809
122	0x38fef161	0.00012156624
123	0x3cc5a2eb	0.024125537
124	0x3d84a8e3	0.06477525
125	0x3d744d35	0.059643943
126	0xbe3611ad	-0.1778018
127	0xbc6bf1c3	-0.014400902
128	0x3e83b9ac	0.25727594
129	0x3b178ec1	0.002312586
130	0xbd2a43d8	-0.041568607
131	0x3cb9542e	0.022623148
132	0x3ce0c455	0.027437368
133	0x3bd65ef0	0.006542079
134	0x3c5e44a8	0.013566174
135	0xbd300d1a	-0.042981245
136	0xc015d2c0	-2.3409882
137	0xbde69cca	-0.11260374
138	0xbf077c0c	-0.52923656
139	0xbf1f6075	-0.62256557
140	0xbe265f7b	-0.1624736
141	0xbe666c23	-0.22502188
142	0xbea1b785	-0.31585327
143	0xbed3aa9d	-0.41341105
144	0xbe3f6926	-0.18692455
145	0xbf908aa9	-1.1292316
146	0xbe9d2233	-0.30690154
147	0x3e812841	0.25226024
148	0x3ee23798	0.4418304
149	0x3e1cebe8	0.15324366
150	0x3d15a312	0.03653247
151	0x3ebdf00d	0.37097207
152	0xbca4a9a8	-0.02010043
153	0x3bae53b1	0.0053200354
154	0x3e588be6	0.21147117
155	0xbddce4bc	-0.10785815
156	0xbe18c0d9	-0.14917316
157	0x3e5aac29	0.21354736
158	0x3e16102d	0.14654608
159	0x3e1d4e20	0.15361834
160	0xbb5ce1b0	-0.0033703856
161	0x3ddabce1	0.10680557
162	0xbdb3f46e	-0.08786856
163	0x3ea4c585	0.32181945
164	0x3e6b3c9a	0.22972336
165	0xbca5df0a	-0.020247955
166	0x3efb8bc9	0.49130085
167	0xbca72e27	-0.02040775
168	0x3dc8088e	0.09767257
169	0xbdb6be62	-0.089230314
170	0x3e96f330	0.29482412
171	0x3ecf15a1	0.4044619
172	0x3e0ab6fb	0.13546364
173	0xbe4a6b84	-0.19767576
174	0x3e713f78	0.23559368
175	0x3e2730eb	0.16327254
176	0x3db85ece	0.090024576
177	0x3dbfd99a	0.09367676
178	0xbe2a7086	-0.16644487
179	0xbcf80158	-0.030274078
180	0xbb95741b	-0.00456096
181	0x3d923481	0.071389206
182	0x3e0aab79	0.13541974
183	0xbb8bbba5	-0.0042643123
184	0x3d47df21	0.048796777
185	0x3dc4b8b5	0.096055426
186	0x3e1aa409	0.15101637
187	0xbd91c61a	-0.07117863
188	0x3e10d5b1	0.14144017
189	0xbcf9925e	-0.030465301
190	0x3d0e35fe	0.03471946
191	0x3d85ec2e	0.06539188
192	0x3e5b4aa2	0.21415189
193	0xbce8d306	-0.028420936
194	0x3f2ee2cb	0.6831481
195	0x3d94720e	0.07248317
196	0xbe2202db	-0.15821402
197	0xbdb19645	-0.0867124
198	0xbd062817	-0.032753076
199	0xbe4455a6	-0.19173297
200	0x3e3a6fca	0.18206707
201	0x3e8b5ce2	0.272193
202	0x3d0ee5e9	0.03488723
203	0x3e8b0131	0.27149346
204	0x3deec645	0.11658911
205	0x3de165f3	0.110057734
206	0x3e184f30	0.14873958
207	0xbd50941f	-0.05092251
208	0x3eb4090e	0.35163158
209	0x3ee5fa9c	0.44917762
210	0xbd78ffea	-0.060790934
211	0xbe4ae53a	-0.19814005
212	0xbc8f901f	-0.017524777
213	0x3e93d388	0.28872323
214	0x3e72effd	0.23724361
215	0xbc160061	-0.009155364
216	0xbd0c780e	-0.03429418
217	0x3cd4b8c5	0.025967011
218	0x3e10ac2f	0.14128183
219	0x3e3185c3	0.17336182
220	0x3e94030a	0.2890857
221	0xbdbd23ca	-0.09235342
222	0x3df4eb58	0.11958951
223	0x3e06e2dd	0.13172479
224	0x3ea9fffe	0.3320312

bias f4 [15]
0	0xbe961355	-0.29311624
1	0x3f075463	0.5286314
2	0xbf137a63	-0.5760862
3	0x3edcf2c5	0.43153968
4	0xbeb8cd89	-0.3609431
5	0x3f8b1423	1.086552
6	0x3e25daaa	0.16196695
7	0x3de7c5e6	0.11317043
8	0xbd7c8705	-0.061652202
9	0xbf309e53	-0.68991584
10	0xbe9c007c	-0.3046912
11	0x3dcb8dbd	0.09939144
12	0xbeaf338d	-0.34219018
13	0xbe8171f8	-0.25282264
14	0x3f2af5ca	0.66781294

weight f4 [15, 15]
0	0x3e5ea152	0.21741226
1	0x3e879390	0.2647977
2	0xbcbb89f6	-0.022892933
3	0x3d9ccef9	0.076566644
4	0xbe3f7631	-0.1869743
5	0x3e299651	0.16561247
6	0xbe82f7b0	-0.25579596
7	0x3d3fd1e8	0.04683104
8	0xbd367eec	-0.044554636
9	0x3f18f454	0.59747815
10	0x3e2ba80b	0.16763322
11	0xbd8ad6df	-0.06779265
12	0x3dd58b78	0.10426992
13	0xbddd7991	-0.108142026
14	0x3df3c927	0.11903601
15	0x3eaf5c34	0.34250033
16	0x3e350f74	0.17681676
17	0xbe86e468	-0.26346135
18	0xbd27daa0	-0.04097998
19	0x3edffd7a	0.43748075
20	0xbe3fdc3c	-0.18736356
21	0x3ea0d068	0.31409
22	0x3d9a231c	0.07526228
23	0x3ebbcd02	0.36679846
24	0x3f21d284	0.63211846
25	0xbdae2914	-0.08503929
26	0x3e49e01d	0.19714399
27	0xbb17c228	-0.0023156498
28	0xbe0a1e2a	-0.13488069
29	0xbe1fc4fb	-0.15602486
30	0x3e363fb8	0.17797744
31	0xbea64750	-0.32476282
32	0x3e50b67f	0.20382117
33	0x3da6a832	0.081375495
34	0x3e417d92	0.18895558
35	0x3c1c959c	0.009557154
36	0xbe04ce62	-0.12969354
37	0x3ec62a51	0.3870416
38	0xbe211b6a	-0.15733114
39	0x3f69db53	0.9135029
40	0xbc22b329	-0.00993041
41	0x3ddd6e49	0.10812051
42	0x3e84275b	0.25811276
43	0x3d6f2623	0.05838598
44	0x3e6647f6	0.22488388
45	0x3e64e7a5	0.2235399
46	0x3dfe18e6	0.12407093
47	0xbde9615e	-0.113955244
48	0xbcc55a2f	-0.024090854
49	0xbdd0c90c	-0.10194597
50	0x3ea13b1c	0.3149041
51	0xbdc7f108	-0.0976277
52	0xbeab2c70	-0.3343234
53	0xbe1216aa	-0.14266458
54	0x3f3e1c72	0.74262154
55	0x3c9ff85f	0.019527612
56	0x3e6078a0	0.21921015
57	0x3e257ba2	0.16160443
58	0xbe185e30	-0.1487968
59	0x3e9348ab	0.2876638
60	0xbc981299	-0.018563556
61	0x3de2b258	0.110691726
62	0xbed0dac7	-0.40791914
63	0xbeb7fbdc	-0.3593434
64	0x3e0eff8b	0.1396467
65	0x3ea96679	0.33085993
66	0xbe386b07	-0.18009578
67	0x3eeb6c89	0.45981243
68	0x3ceea104	0.029129513
69	0x3fc79104	1.559113
70	0x3e679a11	0.22617365
71	0x3e019cd3	0.1265748
72	0xbd215719	-0.039389703
73	0x3e244bea	0.16044584
74	0x3e6c567e	0.23079869
75	0xbe9095b7	-0.28239223
76	0xbd15ad1c	-0.036542043
77	0xbe224e7d	-0.15850253
78	0xbd883712	-0.06651129
79	0xbe170e22	-0.14751485
80	0x3e81f7a4	0.25384247
81	0x3e9b4912	0.30329186
82	0xbc7da791	-0.0154818455
83	0x3ca53a32	0.020169351
84	0x3eff665c	0.49882782
85	0x3e90ba9a	0.28267366
86	0x3ed1e2c9	0.40993336
87	0xbe87f484	-0.26553738
88	0x3eb75798	0.35809016
89	0x3cc68ffb	0.024238577
90	0x3ec19451	0.3780847
91	0x3ec2e41a	0.38064653
92	0x3eebe841	0.46075633
93	0xbdaad021	-0.08340479
94	0xbddd0bad	-0.107932426
95	0x3e2019d6	0.15634856
96	0x3dea12a5	0.114293374
97	0x3e9c6fdb	0.3055409
98	0xbe18a3d0	-0.1490624
99	0xbcf4eaf7	-0.029897196
100	0xbe08dc74	-0.13365346
101	0xbd8dbc92	-0.069207326
102	0xbe1326e4	-0.14370304
103	0xbce7aa36	-0.028279405
104	0xbe2ecc7c	-0.17070192
105	0x3e802373	0.25027046
106	0xbcc4bf54	-0.024017014
107	0x3de40fdf	0.1113584
108	0xbd0188f6	-0.031624757
109	0xbccce189	-0.025009887
110	0xbd715fa2	-0.058929093
111	0x3dab6872	0.08369531
112	0xbdf0694e	-0.11738835
113	0xbdb5f852	-0.08885254
114	0x3f000efa	0.5002285
115	0x3e3c3803	0.18380742
116	0x3dfb8629	0.122814484
117	0x3d833bcd	0.064078905
118	0x3dc96b26	0.0983489
119	0x3dc3f873	0.09568872
120	0x3c2c51c7	0.010517544
121	0x3df8beb9	0.121457525
122	0xbddb2698	-0.107007205
123	0x3e5f1de5	0.21788748
124	0xbd40164d	-0.046896268
125	0x3df7ab60	0.12093234
126	0xbcfe5c00	-0.031049728
127	0x3d3a411a	0.045472242
128	0x3ca84689	0.020541446
129	0x3f896a56	1.0735576
130	0xbd9ce942	-0.07661678
131	0x3dd4c357	0.103888206
132	0x3f0749e6	0.52847135
133	0x3eb91cbd	0.36154738
134	0xbe8bfdea	-0.2734216
135	0xbe9eaa29	-0.30989197
136	0xbe019765	-0.12655409
137	0x3d71aaef	0.059000906
138	0x3d3bc472	0.04584164
139	0x3e211866	0.15731964
140	0x3f29cd1d	0.66328603
141	0x3e485aae	0.19565842
142	0x3cdcddc9	0.026961224
143	0x3db364c7	0.08759456
144	0x3eda29df	0.4261007
145	0xbdd82f7b	-0.10555931
146	0xbd87b001	-0.06625367
147	0x3dec45d2	0.11536755
148	0xbe94ecb4	-0.2908684
149	0x3d318c34	0.0433466
150	0x3cc0f5ad	0.023554647
151	0xbe043d4c	-0.12914008
152	0x3da52cf8	0.08065218
153	0x3e27492c	0.16336507
154	0xbc6bc90f	-0.014391198
155	0xbddd38b8	-0.10801834
156	0x3e8785bb	0.26469216
157	0x3cccfdf4	0.025023438
158	0x3ac89920	0.0015304424
159	0x3ef9b1e4	0.48768532
160	0x3e741ea4	0.23839813
161	0xbe1b77a6	-0.15182361
162	0x3c38660e	0.0112548005
163	0xbc1a1227	-0.009403742
164	0x3e9e50db	0.30921063
165	0x3d954070	0.07287681
166	0xbd9d93a2	-0.07694174
167	0xbdcb1fb3	-0.099181555
168	0x3ec4a44d	0.38406602
169	0xbccfc356	-0.025361698
170	0xbce77c39	-0.028257476
171	0xbe80442b	-0.25052008
172	0x3e7d6174	0.24744207
173	0x3e83c5a4	0.25736725
174	0xbc5c8b32	-0.013460921
175	0x3ebd0185	0.36915222
176	0x3e9c2093	0.30493602
177	0xbe1d9c5c	-0.15391678
178	0xbe39463a	-0.18093196
179	0xbd058d0b	-0.032605212
180	0xbb89c86e	-0.0042048013
181	0x3e2159eb	0.15756957
182	0x3b901db7	0.0043980735
183	0x3dff2416	0.12458055
184	0xbe5555b1	-0.2083347
185	0x3e32fef6	0.17480072
186	0xbd9488a2	-0.07252623
187	0x3e0b8054	0.13623172
188	0xbe10f8f1	-0.14157464
189	0xbc6e1bb3	-0.014532971
190	0xbe2305ae	-0.15920135
191	0x3e7c0449	0.2461101
192	0xbe284b94	-0.16435081
193	0x3d35bdf5	0.04437061
194	0x3cb1b726	0.021693777
195	0xbca2a419	-0.019853638
196	0x3e8cc0d7	0.27490875
197	0xbae07a77	-0.0017126341
198	0x3d6e308f	0.058151778
199	0xbe2ba5f7	-0.1676253
200	0x3df98f07	0.121854834
201	0x3e1c9769	0.15292133
202	0xbce2374c	-0.027614258
203	0x3e41e3e8	0.18934596
204	0x3f518d89	0.8185659
205	0x3ecdb858	0.40179706
206	0xbea59373	-0.32339057
207	0x3e0cc514	0.13747054
208	0x3d352f82	0.04423476
209	0xbd36f752	-0.044669457
210	0x3d081c14	0.033229902
211	0x3eb8b0be	0.36072344
212	0xbf068b80	-0.5255661
213	0x3eb402aa	0.35158283
214	0xbd8b79fd	-0.06810377
215	0xbd609344	-0.054827943
216	0x3e1fde7d	0.15612216
217	0x3e7f4b12	0.24930981
218	0xbda62fb0	-0.081145644
219	0x3f505566	0.8138031
220	0xbe921695	-0.28532854
221	0xbe15d29f	-0.14631127
222	0xbdcab701	-0.098981865
223	0x3b5a9adf	0.003335647
224	0x3e9f9f88	0.311764

bias f4 [15]
0	0x3eb2f4dc	0.34952438
1	0xbdfb530c	-0.12271699
2	0xbec241a5	-0.37940708
3	0x3f086b2b	0.53288525
4	0x3e659c1f	0.22422837
5	0x3e44f87f	0.19235419
6	0x3ed6c3b2	0.4194618
7	0xbee01245	-0.4376394
8	0xbdeca5b9	-0.115550466
9	0x3f69a770	0.91271114
10	0xbeacd38c	-0.33755147
11	0x3e3ba8d2	0.18326119
12	0x3efc1dc3	0.49241456
13	0xbd9a5a1c	-0.07536718
14	0x3f4db227	0.80349964

weight f4 [96, 15]
0	0x3d09b37a	0.033618428
1	0x3e1c6d9a	0.15276185
2	0xbf15793c	-0.58388114
3	0xbcd4a3d0	-0.025957018
4	0xbf1b6ee4	-0.6071608
5	0x3e89d96b	0.2692369
6	0xbcfcefcb	-0.030876061
7	0xbe16b080	-0.14715767
8	0x3e88ab8b	0.26693377
9	0xbdfae128	-0.122499764
10	0xbe5e3c03	-0.2170258
11	0x3f30e6dc	0.69102263
12	0x3f09c604	0.5381777
13	0x3d8e9010	0.069610715
14	0xbe90ecab	-0.28305563
15	0x3e25366b	0.1613404
16	0x3dd90e1e	0.10598396
17	0xbeb129e8	-0.34602284
18	0xbe297c96	-0.16551432
19	0xbf258910	-0.64662266
20	0x3ef81f14	0.4846121
21	0x3d704238	0.0586569
22	0xbe5c3b2d	-0.21506949
23	0x3ebe16e2	0.37126833
24	0xbe613e50	-0.21996427
25	0xbec0d7c1	-0.37664607
26	0x3f248eb8	0.6428027
27	0x3e065d29	0.13121475
28	0x3daac2f8	0.083379686
29	0xbe6b6d12	-0.22990826
30	0xbdd177fd	-0.10227964
31	0x3ca817d9	0.020519184
32	0xbedec11c	-0.43506706
33	0xbea6f9d0	-0.32612467
34	0xbebc1075	-0.36731306
35	0x3e77b72c	0.24190968
36	0x3cff4fed	0.031166041
37	0x3d712548	0.058873445
38	0x3f14a75b	0.58067864
39	0xbe6ad98d	-0.22934552
40	0xbe5f2622	-0.2179189
41	0x3f182c52	0.5944263
42	0x3eaf926f	0.34291407
43	0x3e03343f	0.12812899
44	0xbea35150	-0.31897974
45	0xbe0ed694	-0.13949043
46	0xbdd09e35	-0.101864256
47	0xbed1653c	-0.40897548
48	0xbec0be2b	-0.37645087
49	0xbe43835b	-0.19093077
50	0x3e8ce1bd	0.27515975
51	0x3df26c6f	0.11837088
52	0x3d791e7a	0.06082008
53	0x3f3bbce8	0.73335123
54	0xbe80f52d	-0.25187054
55	0xbe58d8c6	-0.21176443
56	0x3f09b439	0.5379062
57	0x3dc2eb4d	0.09517536
58	0x3d069703	0.03285886
59	0xbe91b820	-0.2846079
60	0xbe0883d2	-0.13331535
61	0xbdeb3721	-0.114851244
62	0xbe0f9364	-0.14021069
63	0xbedb668d	-0.42851678
64	0xbdd9129c	-0.105992526
65	0x3ea779f5	0.32710233
66	0x3ca38622	0.01996142
67	0x3d5a3ea7	0.053282406
68	0x3f290f11	0.66038615
69	0xbe8b2147	-0.27173826
70	0xbef0f970	-0.47065306
71	0x3eb1774d	0.34661332
72	0x3e24c61d	0.16091199
73	0x3e684f66	0.22686538
74	0xbe77069f	-0.2412362
75	0xbdcf2668	-0.10114747
76	0xbe1fed25	-0.15617807
77	0xbdce7851	-0.10081542
78	0xbeb8140a	-0.3595279
79	0x3e8c2111	0.27368978
80	0x3e8b1156	0.27161664
81	0xbb8366a2	-0.0040100375
82	0xbe300557	-0.17189537
83	0x3f1f82c1	0.6230889
84	0xbe7f6ca5	-0.24943788
85	0xbeedbdcb	-0.46433863
86	0x3dd74e4f	0.10512983
87	0x3e84c338	0.2593019
88	0x3e013958	0.12619531
89	0xbe72d4e6	-0.23714027
90	0x3da97d81	0.08275891
91	0xbde3c28e	-0.11121093
92	0xbde44da8	-0.11147624
93	0xbecbcf51	-0.39806607
94	0x3ecf585d	0.40497103
95	0x3e85c480	0.2612648
96	0xbd7c0929	-0.061532173
97	0xbe25e955	-0.1620229
98	0x3f009057	0.50220245
99	0xbe2b76ff	-0.16744612
100	0xbf064695	-0.5245145
101	0xbbbf9f1d	-0.005847825
102	0x3ea893f5	0.32925382
103	0x3c6144dc	0.0137493275
104	0xbe549952	-0.20761612
105	0x3e4bd299	0.19904555
106	0xbcffc611	-0.031222375
107	0xbe25d14c	-0.16193122
108	0xbea53f7f	-0.32275006
109	0x3f0771e6	0.5290817
110	0x3e6ba7fa	0.23013297
111	0xbd739071	-0.059463922
112	0xbead8f3c	-0.33898342
113	0x3ec72952	0.38898712
114	0xbe128d75	-0.14311774
115	0xbee69fa0	-0.4504366
116	0xbd763a9f	-0.0601145
117	0x3ec99478	0.39371085
118	0xbdf8efe9	-0.12155134
119	0xbe718f8d	-0.23589917
120	0x3dd26291	0.10272706
121	0x3c999507	0.01874782
122	0xbdf09644	-0.11747411
123	0xbdf7a6f6	-0.12092392
124	0x3f15a407	0.5845341
125	0x3e63cd0b	0.22246186
126	0x3c4e2401	0.012581826
127	0xbf0170e0	-0.5056286
128	0x3e556f65	0.20843275
129	0xbe1f5e3c	-0.15563291
130	0xbf0ab871	-0.54187685
131	0xbb97f53e	-0.0046373894
132	0x3e9bd1c6	0.30433482
133	0xbe0138c1	-0.12619306
134	0xbe45be38	-0.19310844
135	0x3c4624dc	0.012093749
136	0x3d8b85fd	0.068126656
137	0xbe883bfc	-0.26608264
138	0xbd8231f4	-0.06357184
139	0x3f323786	0.6961597
140	0x3da85745	0.0821977
141	0x3d78567e	0.06062936
142	0xbeb0546a	-0.34439403
143	0x3dce563e	0.10075043
144	0xbda27e8a	-0.07934292
145	0xbefdbf31	-0.4955993
146	0x3dccf330	0.10007322
147	0x3e983192	0.2972532
148	0xbe829392	-0.25503212
149	0xbe43f002	-0.19134524
150	0xbdb87fd3	-0.090087555
151	0x3df2f330	0.118627906
152	0xbe807c1a	-0.25094682
153	0xbc73c450	-0.0148783475
154	0x3f2d27d8	0.6763892
155	0x3d3e3945	0.046441335
156	0x3dd9d5da	0.10636492
157	0xbdbc1db3	-0.09185352
158	0xbda8e6aa	-0.08247121
159	0xbbb019e2	-0.005374179
160	0xbf2cdf8f	-0.67528623
161	0x3e64ab5c	0.22330993
162	0x3e0e8e6b	0.13921516
163	0xbe86b0b2	-0.26306683
164	0xbdf4b19c	-0.11947939
165	0x3d2640f4	0.040589288
166	0x3e98b515	0.29825655
167	0xbcf258d0	-0.029583365
168	0x3e05d5c5	0.13069828
169	0x3ef9f756	0.48821515
170	0x3e6d1747	0.23153411
171	0x3e271072	0.16314867
172	0xbed13205	-0.40858474
173	0xbe8833ea	-0.26602107
174	0xbdb1c4e2	-0.086801305
175	0xbf38b528	-0.7215142
176	0x3e667240	0.2250452
177	0xbda230f5	-0.07919494
178	0xbe775ae4	-0.24155766
179	0xbe388e24	-0.18022972
180	0xbdf306f5	-0.11866561
181	0x3ec9f20d	0.39442483
182	0xbdd93b85	-0.106070556
183	0x3c978ccb	0.018499753
184	0x3efe8580	0.49711227
185	0x3d116591	0.035497252
186	0x3daa8a1f	0.08327126
187	0x3da51214	0.08060089
188	0xbeb0fe3a	-0.3456896
189	0x3cf7d056	0.03025071
190	0xbf2eaf54	-0.6823628
191	0x3e8dd71f	0.27703187
192	0x3df4b020	0.11947656
193	0xbe4db402	-0.20088199
194	0xbe88a64c	-0.26689374
195	0x3e1fae75	0.15593894
196	0x3f141746	0.5784801
197	0xbc8cec0d	-0.017202402
198	0xbdc3983f	-0.09550523
199	0x3ea661ff	0.3249664
200	0x3e1f6c35	0.15568621
201	0x3ce11170	0.027474135
202	0x3d870325	0.06592397
203	0xbeca86ad	-0.39555874
204	0x3d71e79c	0.05905877
205	0xbf0ab111	-0.5417643
206	0x3e3a6fab	0.1820666
207	0x3db60540	0.0888772
208	0xbe8fc7ed	-0.2808222
209	0xbed81465	-0.4220306
210	0xbe0b6816	-0.13613924
211	0x3f16d3f7	0.5891718
212	0xbd0b2f52	-0.033980675
213	0x3ceb3731	0.02871284
214	0x3e954137	0.29151317
215	0x3de99ed4	0.11407247
216	0x3debc737	0.115126066
217	0x3c6398c1	0.0138914
218	0xbea3b855	-0.31976572
219	0x3d259116	0.040421568
220	0xbe9cb900	-0.30609894
221	0x3e74a2d8	0.23890245
222	0x3c9437ae	0.018092956
223	0xbe8548ed	-0.260322
224	0xbf0e7aff	-0.5565643
225	0xbe95b18b	-0.29237017
226	0x3f20e36c	0.6284702
227	0x3de0b0c5	0.10971216
228	0x3d2f11f5	0.042741735
229	0x3e2b1663	0.16707759
230	0x3e1be172	0.1522272
231	0x3d95d131	0.07315291
232	0x3c261b58	0.010138355
233	0xbea46d02	-0.32114416
234	0x3d629327	0.055316117
235	0xbe7c0300	-0.2461052
236	0x3e32668a	0.17421928
237	0x3d6e596c	0.058190748
238	0xbdc68f60	-0.09695315
239	0xbf28fb51	-0.6600848
240	0xbea133cd	-0.31484833
241	0x3f177254	0.59158826
242	0x3cf7f929	0.030270176
243	0xbe0d9f9e	-0.1383042
244	0x3e0d05c2	0.13771728
245	0x3dfac902	0.122453704
246	0x3b8426dd	0.004032953
247	0x3e9a86af	0.3018088
248	0xbe5ab2ed	-0.21357317
249	0x3e5839ff	0.21115874
250	0xbdaa11f7	-0.08304208
251	0x3dd5d440	0.10440874
252	0x3dbff996	0.093737766
253	0xbe152e49	-0.14568438
254	0xbf3a3d7e	-0.7275008
255	0xbef0a544	-0.47001088

bias f4 [96]
0	0x3e8b41d7	0.2719867
1	0xbc1ac6a6	-0.009446776
2	0xbdb53d90	-0.08849633
3	0xbe72145e	-0.23640582
4	0xbe8578f8	-0.26068854
5	0xbe36479f	-0.17800759
6	0xbdaa1256	-0.083042786
7	0x3c0fc8ba	0.008775884
8	0x3d565162	0.052323706
9	0x3dece0ea	0.115663365
10	0x3df412c8	0.11917645
11	0x3d635b16	0.05550679
12	0x3ddbffcd	0.107421495
13	0x3d8e9f76	0.069640085
14	0x3c62a51c	0.01383331
15	0xbbc09411	-0.005877026
16	0x3c4ecabf	0.012621581
17	0xbd7a670b	-0.061133426
18	0x3d654343	0.05597235
19	0x3e4a16dd	0.19735284
20	0x3e970475	0.29495588
21	0x3ecad93c	0.39618862
22	0x3ed8a64b	0.4231437
23	0x3ed18f8f	0.4092984
24	0x3ebc030b	0.36721072
25	0x3e8f889d	0.28033915
26	0x3da50c46	0.080589816
27	0xbd076707	-0.03305724
28	0xbdee7d57	-0.116450004
29	0xbe351225	-0.17682703
30	0xbe65f26c	-0.22455758
31	0xbe4ff58f	-0.20308517
32	0xbdedcda7	-0.11611491
33	0x3d98ef8d	0.07467566
34	0x3e4023d4	0.18763667
35	0x3eb08417	0.34475777
36	0x3ed60744	0.41802418
37	0x3ee89b59	0.4543102
38	0x3eee5648	0.46550202
39	0x3eaaa56d	0.33329335
40	0x3e6c5cb8	0.23082244
41	0x3dbb5469	0.09146959
42	0xbdc54a03	-0.09633257
43	0xbeb0f3d6	-0.34561032
44	0xbedd404e	-0.43213123
45	0xbece9a29	-0.4035199
46	0xbebe911f	-0.37220094
47	0xbe4e216e	-0.2012994
48	0xbf349772	-0.7054359
49	0xbf17af20	-0.59251595
50	0xbee86318	-0.45388103
51	0xbec2d488	-0.38052773
52	0xbe6066c6	-0.21914205
53	0x3a9b331e	0.0011840796
54	0x3db121ac	0.086490005
55	0x3dd66abc	0.10469577
56	0x3e2a23d9	0.16615237
57	0x3dd2a93c	0.10286185
58	0x3d8618e8	0.06547719
59	0xbb8ad58e	-0.0042368835
60	0xbc0b8350	-0.008515194
61	0xbd461a6e	-0.04836505
62	0xbd1cb160	-0.038255095
63	0x3baa022f	0.0051882486
64	0x3e2719e8	0.16318476
65	0x3e4b3d30	0.1984756
66	0x3ea0428a	0.31300765
67	0x3eb3e06d	0.3513216
68	0x3e913ec8	0.2836821
69	0x3e5f8373	0.21827488
70	0x3dce0aec	0.10060677
71	0x3d6788fe	0.05652713
72	0xbe30802c	-0.17236394
73	0xbe9c89ee	-0.30573982
74	0xbea9ac47	-0.3313925
75	0xbe8b5220	-0.27211094
76	0xbe31a6dd	-0.1734881
77	0xbe14f0ee	-0.14545032
78	0x3e05f75b	0.1308264
79	0x3e973f1b	0.29540333
80	0x3eca2bff	0.3948669
81	0x3ee773be	0.45205492
82	0x3eee6a1e	0.46565336
83	0x3ec26c39	0.37973192
84	0x3e84c400	0.25930786
85	0x3e21932c	0.15778798
86	0xbcc87dc5	-0.024474034
87	0xbe3cccbd	-0.18437476
88	0xbe8fc1f3	-0.2807766
89	0xbea1e9bd	-0.3162364
90	0xbe915e8f	-0.28392455
91	0xbdb62f89	-0.08895785
92	0x3dabf485	0.08396248
93	0x3ea73697	0.32658836
94	0x3f12c697	0.57334274
95	0x3f455262	0.7707883
